Week 9/Day 6/mnist_model.pth (torch, 440581 bytes, 6 tensors)

fc1.weight f4 [128, 784]
0.023432206 0.036144856 -0.028604047 0.004796484 0.037299875 0.026601959 0.038131777 0.028557315
0.037284095 -0.015592195 -0.0046535255 -0.008853983 0.025688667 -0.029530186 -0.0036692254 0.02610584
-0.004970274 0.019820238 -0.0108723445 -0.0072846324 -0.025813174 -0.015372222 -0.013780444 -0.022861648
-0.017651707 0.040505167 0.030059677 0.034266774 -0.018749587 -0.023718005 -0.0029741977 0.004211093
-0.024992866 0.028875127 -0.007425767 -0.010239204 -0.013068557 -0.0080986135 -0.0055991835 0.030926362
-0.026646618 0.039083686 0.023406897 -0.016813714 -0.005154099 0.011193573 0.032964606 -0.0014952405
0.036693987 -0.012796342 -0.011685576 -0.011015064 -0.02870342 -0.007645182 0.038013425 0.021032661
0.020016594 0.00724451 0.011407512 -0.009320542 0.010267521 0.004499702 -0.028488683 0.030231785
0.031728953 0.03644607 0.018074112 0.029131018 -0.0073101264 -0.021273553 -0.023214988 -0.01395719
-0.025443856 -0.006000719 0.03702302 0.02163615 0.03996699 -0.017298529 0.0028409553 -0.018754585
-0.00665685 0.033956997 -0.008247029 -0.0031049591 0.020207217 0.04155731 0.024969973 0.013534682
0.004089574 -0.021031763 0.025234655 -0.008234406 0.009385353 0.03649285 0.018258417 0.009675837
-0.015526454 0.025949642 -0.009154883 0.008400489 0.005047169 0.036938462 0.020618776 0.033273198
-0.022899885 -0.002210884 -0.008090027 -0.022811899 0.023133837 0.038695868 0.038102586 0.005607037
0.018281551 0.02612948 0.028531268 0.004950536 0.0366777 0.028661206 0.03430242 0.026766539
0.02091441 0.0061398125 -0.029674754 0.033400744 0.022581473 0.018843545 0.037711956 0.015355973
-0.010885439 0.037257995 -0.019279692 -0.029314239 -0.006560877 0.009165226 -0.025079783 0.038808573
-0.02392533 0.032106508 0.01324047 0.027877353 0.0031093664 0.024782758 -0.025194492 0.040746626
-0.029651385 0.032975335 -0.0017177571 0.009235701 0.012650223 -0.00858161 -0.0045949304 -0.023917759
-0.011337187 0.015037465 -0.024378236 -0.006657036 -0.009073515 0.016878705 -0.028401524 -0.0072690398
-0.020216513 0.03158983 0.011334708 -0.005471286 -0.020592362 0.0028590192 0.0153026115 0.018349996
0.027999595 0.02980993 0.030843724 -0.0066933543 0.021401517 -0.0046558892 0.033220727 -0.029460188
0.012128918 -0.010328891 -0.014164734 -0.017184844 0.039170433 -0.0267049 -0.005934639 0.03719857
-0.034287468 0.025222963 0.0102315275 0.019048749 0.0039223284 -0.008089571 0.029057682 -0.0006308967
0.023308277 0.0383456 0.011422205 -0.0099051315 0.0035965638 0.01345727 0.007342456 0.020826697
-0.011157735 -0.021823097 0.03582472 -0.020999275 0.036231432 -0.023359934 0.019123064 0.01288118
0.0284506 0.0029794988 -0.018584084 0.029520642 -0.03669376 -0.028342634 -0.010977258 -0.0022040103
0.021878647 0.029738564 -0.020434586 -0.009954482 -0.0019350753 -0.019979073 0.030909758 0.010251361
0.0076383185 -0.017036388 0.011625263 0.03584918 0.015017001 0.03178696 0.02157825 0.021793487
7.169347e-06 -0.026062168 -0.0073907725 0.004220201 0.036246978 0.038336538 -0.01611397 0.011593677
-0.00876347 0.027564503 -0.011832699 0.00932473 0.015692985 0.03426068 0.038112015 0.027687876
0.009216847 0.032919105 -0.017322384 0.019167317 -0.00669469 -0.029188354 0.015309392 0.0143027175
00000000: e6f4 bf3c a10c 143d 0953 eabc d32b 9d3b
00000010: c1c7 183d 5aec d93c 1130 1c3d 08f1 e93c
00000020: 35b7 183d 6876 7fbc 9a7c 98bb 4c10 11bc
00000030: 0a71 d23c 4ae9 f1bc 6377 70bb eadb d53c
00000040: aedd a2bb 0d5e a23c eb21 32bc edb3 eebb
00000050: 2676 d3bc c6db 7bbc 5fc7 61bc 5a48 bbbc
00000060: 509a 90bc bfe8 253d b63f f63c 515b 0c3d
00000070: bc98 99bc 434c c2bc c2ea 42bb 35fd 893b
00000080: d7bd ccbc 888b ec3c d953 f3bb 56c2 27bc
00000090: 801d 56bc 0cb0 04bc 5b79 b7bb 4859 fd3c
000000a0: 024a dabc 3716 203d d2bf bf3c eabc 89bc
000000b0: b7e3 a8bb 3f65 373c e505 073d f2fb c3ba
000000c0: 6f4c 163d c0a7 51bc dc74 3fbc 8778 34bc
000000d0: 6f23 ebbc 6f84 fabb f7b3 1b3d b04c ac3c
000000e0: d7f9 a33c 5b63 ed3b 93e6 3a3c 30b5 18bc
000000f0: 1b39 283c 3c72 933b 1961 e9bc a6a8 f73c
00000100: 38f6 013d 7948 153d 2910 943c 2ca4 ee3c
00000110: c989 efbb e045 aebc 5c2d bebc b3ac 64bc
00000120: a26f d0bc aea1 c4bb 73a5 173d 4c3e b13c
00000130: 6db4 233d a5b5 8dbc 522f 3a3b 37a3 99bc
00000140: b521 dabb 7e16 0b3d 8c1e 07bc 927c 4bbb
00000150: 9b89 a53c ff37 2a3d d48d cc3c 92c0 5d3c
00000160: d501 863b ce4a acbc e8b8 ce3c 9ae9 06bc
00000170: 06c5 193c 8779 153d ad92 953c 6787 1e3c
00000180: ab62 7ebc 5894 d43c 5dfe 15bc 34a2 093c
00000190: b962 a53b c94c 173d b5e8 a83c 7a49 083d
000001a0: 8a98 bbbc 7ae4 10bb 088c 04bc 05e0 babc
000001b0: 2c83 bd3c 8f7f 1e3d 7511 1c3d 3cbb b73b
000001c0: 31c3 953c 7e0d d63c 68ba e93c 1b38 a23b
000001d0: 5b3b 163d e8ca ea3c b280 0c3d 8045 db3c
000001e0: b254 ab3c 7b30 c93b 7818 f3bc 38cf 083d
000001f0: c8fc b83c c75d 9a3c da77 1a3d 9e97 7b3c
00000200: d758 32bc d79b 183d 72f0 9dbc 6a24 f0bc
00000210: a0fc d6bb be29 163c 1e74 cdbc bdf5 1e3d
00000220: 0eff c3bc 1d82 033d 8eee 583c 0c5f e43c
00000230: 83c6 4b3b 3605 cb3c ae64 cebc efe5 263d
00000240: 76e7 f2bc 2511 073d 5d26 e1ba 5651 173c
00000250: e242 4f3c e299 0cbc 1291 96bb 2def c3bc
00000260: 9cbf 39bc b35f 763c deb4 c7bc 4423 dabb
00000270: 15a9 14bc 3645 8a3c 50aa e8bc 2031 eebb
00000280: 1a9d a5bc 5664 013d 36b5 393c 7948 b3bb
00000290: 50b1 a8bc 625e 3b3b ceb7 7a3c bb52 963c
000002a0: 685f e53c f433 f43c faab fc3c ed53 dbbb
000002b0: 3c52 af3c 6e90 98bb 7512 083d 7e56 f1bc
000002c0: 5fb8 463c 823a 29bc 3313 68bc 3bc7 8cbc
000002d0: 2d71 203d 3cc4 dabc 5c77 c2bb 875d 183d
000002e0: 0471 0cbd 63a0 ce3c 23a2 273c 1f0c 9c3c
000002f0: e086 803b 1f8a 04bc 600a ee3c c362 25ba
00000300: 00f1 be3c 4710 1d3d 3324 3b3c 2249 22bc
00000310: 54b4 6b3b e27b 5c3c fc98 f03b c09c aa3c
00000320: efce 36bc 5ac6 b2bc f1bc 123d ac06 acbc
00000330: 6967 143d 555d bfbc f9a7 9c3c 960b 533c
00000340: 3c11 e93c b243 433b a63d 98bc 46d5 f13c
00000350: 324c 16bd d02e e8bc f5d9 33bc 2871 10bb
00000360: d93a b33c 4a9e f33c 6f66 a7bc 2018 23bc
00000370: 5aa2 fdba 27ab a3bc 7636 fd3c 53f5 273c
00000380: dc4a fa3b e58f 8bbc e377 3e3c 97d6 123d
00000390: de09 763c 0b33 023d dfc4 b03c 4188 b23c
000003a0: 3990 f036 5480 d5bc 4b2e f2bb 9d49 8a3b
000003b0: b677 143d c606 1d3d 7201 84bc 68f3 3d3c
000003c0: a894 0fbc f4ce e13c f0dd 41bc c1c6 183c
000003d0: 938e 803c ed54 0c3d 581b 1c3d afd1 e23c
000003e0: 4202 173c 2fd6 063d ace7 8dbc c704 9d3c
000003f0: 215f dbbb 6a1c efbc 3ed4 7a3c f255 6a3c

fc1.bias f4 [128]
-0.020716306 -0.014713688 -0.062993504 0.004116281 0.032027483 -0.027240068 0.005835772 0.016141823
0.029567441 -0.013010068 0.008807188 0.005485642 -0.013759047 -0.039334867 -0.024371129 0.005819475
0.012399388 0.019340727 -0.017732421 -0.009021843 0.0221641 -0.008043855 0.029219842 -0.017114481
-5.4934844e-05 -0.01827294 0.008010022 0.016125524 0.017314985 -0.034080125 -0.036246713 -0.020339953
-0.022476966 -0.0020108991 0.016227547 -0.021579757 -0.034840163 0.018119408 -0.04342183 0.024317648
0.017451033 -0.015495285 -0.0034294308 -0.024051297 0.009997744 -0.0010144268 0.011469763 -0.013505296
-0.043855973 -0.037710156 -0.02342334 0.050517827 -0.032446835 -0.009792929 0.012193282 -0.0327261
-0.04764507 0.03221094 0.022421619 -0.03522564 -0.020654172 -0.00936204 0.030031078 0.006863973
-0.04486028 -0.017098071 -0.02960895 -0.0064212014 -0.015749995 0.008293574 0.015825389 -0.009320906
-0.023109362 -0.010739051 -0.039661035 -0.035312254 -0.02531295 -0.0011450971 0.0126706585 -0.01820241
-0.011557368 0.02040319 -0.0063475994 0.006825832 -0.028973697 -0.055165134 0.017393218 -0.031080062
0.017318226 -0.040735602 0.04177711 -0.020852609 -0.017774452 -0.020092627 -0.044323005 -0.013392115
-0.01972423 -0.029279456 0.01826039 0.023094263 0.021225631 0.013670841 0.029117828 0.033182863
-0.038442813 -0.03810581 0.004445141 0.00807909 -0.022310603 -0.026849907 0.014430368 0.016292857
0.009508361 -0.0212034 -0.045039084 -0.0071782256 -0.0107296705 0.012946559 0.011468981 -0.006108423
-0.010693702 -0.0023188447 -0.04346751 -0.021940358 -0.03825032 -0.025451604 -0.034147535 -0.03807056
00000000: 3eb5 a9bc ae11 71bc bd02 81bd dee1 863b
00000010: 402f 033d 9026 dfbc 013a bf3b db3b 843c
00000020: 6b37 f23c 2e28 55bc 064c 103c e6c0 b33b
00000030: a06d 61bc 991d 21bd f6a5 c7bc 4bb1 be3b
00000040: cd26 4b3c 7270 9e3c 9543 91bc 5ad0 13bc
00000050: 7d91 b53c 60ca 03bc 735e ef3c ab33 8cbc
00000060: d769 66b8 22b1 95bc 783c 033c ad19 843c
00000070: 28d8 8d3c 9a97 0bbd 6f77 14bd f99f a6bc
00000080: 9d21 b8bc 4ac9 03bb a2ef 843c 08c8 b0bc
00000090: 8fb4 0ebd 276f 943c 17db 31bd ce35 c73c
000000a0: 78f5 8e3c f0df 7dbc 4dc0 60bb 3a07 c5bc
000000b0: 94cd 233c 84f6 84ba aceb 3b3c 5145 5dbc
000000c0: 52a2 33bd f775 1abd 4ee2 bfbc c8eb 4e3d
000000d0: f9e6 04bd 8572 20bc 55c6 473c ce0b 06bd
000000e0: 7a27 43bd 9eef 033d 8bad b73c c348 10bd
000000f0: f032 a9bc 3e63 19bc bc03 f63c 2eeb e03b
00000100: 6abf 37bd 4111 8cbc 788e f2bc f168 d2bb
00000110: 2206 81bc c5e1 073c 3fa4 813c b7b6 18bc
00000120: d84f bdbc d8f2 2fbc 9c73 22bd 95a3 10bd
00000130: 1b5d cfbc 1517 96ba 9898 4f3c 381d 95bc
00000140: 1d5b 3dbc 9724 a73c 86ff cfbb 3bab df3b
00000150: 3f5a edbc d6f4 61bd 397c 8e3c 9d9b febc
00000160: f4de 8d3c 60da 26bd 7a1e 2b3d 17d3 aabc
00000170: ba9b 91bc 4b99 a4bc 0a8c 35bd 9a6a 5bbc
00000180: b594 a1bc 78db efbc d096 953c 2e30 bd3c
00000190: 60e1 ad3c aafb 5f3c 8388 ee3c c1ea 073d
000001a0: 3676 1dbd d614 1cbd 8ca8 913b 295e 043c
000001b0: bac4 b6bc 56f4 dbbc 5a6d 6c3c 9978 853c
000001c0: f5c8 1b3c c1b2 adbc e77a 38bd 5237 ebbb
000001d0: 80cb 2fbc ce1d 543c 65e8 3b3c 2b29 c8bb
000001e0: a334 2fbc c2f7 17bb fd0a 32bd 44bc b3bc
000001f0: 5eac 1cbd e27f d0bc 49de 0bbd e0ef 1bbd

fc2.weight f4 [64, 128]
0.060763218 0.14224485 0.10522576 -0.058650848 0.08987607 0.04400661 0.03545293 -0.047211725
0.024164096 -0.020493023 -0.27393577 -0.0748823 0.18563995 0.042858027 0.048183803 -0.022868844
0.11336038 0.064710684 -0.081707925 0.034184508 -0.04734072 -0.06897923 2.6792288e-05 0.046200708
0.024879964 -0.13359039 -0.035322376 0.009015621 0.07953005 0.02661213 0.024815455 -0.016283266
-0.21381499 -0.008506845 0.067513816 0.0038696409 -0.07851772 -0.036530074 0.026080282 -0.083795585
0.08555456 0.04910071 -0.066440895 -0.093163595 0.047051303 0.010148004 -0.010055016 0.039157625
-0.47202027 0.011768524 0.04820589 -0.123019025 0.04782798 0.039042555 0.015106456 0.1551487
-0.031612538 0.12671475 0.026506642 0.0015583321 -0.015514897 -0.013892985 0.06500769 0.07834492
-0.054764815 0.022870868 0.065868974 -0.0018970711 0.00073139596 0.21159227 -0.0014500688 0.09737411
0.04576762 -0.030865453 -0.01501643 0.17968841 0.08086085 0.06028646 -0.055551432 -0.25620595
0.12702598 -0.07267398 0.06694003 0.19299674 0.03461615 0.06259956 -0.06646426 -0.017713374
0.092597574 0.061225083 0.14255482 -0.054216325 0.05492012 0.29985565 0.10271517 -0.04171048
-0.044069353 -0.060006924 -0.013052496 -0.006789036 -0.04127089 0.083612315 0.03270398 -0.058611672
-0.018756136 0.056807764 -0.06966025 0.04783858 0.07256987 -0.0099253375 0.05335901 0.10588797
-0.27613723 -0.029489212 -0.10222862 -0.03729498 0.018877318 -0.06329493 0.024543159 0.0636111
-0.006991416 -0.017598968 -0.07444647 -0.1746089 -0.15765958 -0.0111663565 -0.038952358 -0.078872755
-0.0111206295 0.0014949952 0.032938465 -0.05688461 -0.19525501 -0.07712517 -0.052949242 0.008470245
0.03273317 -0.008392531 -0.048434153 -0.06517397 0.20026052 0.0152554065 0.010950141 -0.15988415
-0.10933486 -0.035285685 0.0151782185 0.05355293 0.17431803 0.09043318 0.031800963 -0.06305529
-0.016385602 -0.11989791 -0.018545974 0.06955539 0.05721393 -0.034105975 0.08382996 0.014111765
0.116240665 -0.1948939 0.07810248 -0.066196464 0.07412254 0.033861246 -0.007726477 -0.05789727
-0.04924761 -0.13460559 0.1412985 -0.093252994 0.047191337 -0.015089616 0.052451234 -0.15851732
0.06729123 -0.03441089 -0.0020620667 -0.07318924 -0.034870848 0.018732982 -0.087740295 0.22677332
0.0088477 -0.004051623 -0.054771617 0.040870007 -0.008837161 -0.1193917 0.101020895 0.1509883
-0.014824556 -0.026628483 -0.0154770315 0.047241695 0.14650811 -0.011766827 0.005404187 0.13704914
-0.027627856 -0.01912056 -0.06858684 0.13180365 -0.032878462 0.25481203 -0.03193496 0.07642237
0.1218097 0.054799676 0.038043715 0.13655055 -0.029046271 0.09960051 0.11188262 -0.024371076
0.060261417 0.015387053 0.083663255 -0.06435179 -0.18455955 0.19634932 0.023106521 0.026732028
0.0865219 0.023934603 0.06736181 0.028261112 0.024301859 0.015628915 0.0867106 -0.03573842
-0.11734906 0.037112504 0.18428713 -0.057625275 0.04549376 0.20353338 -0.003683566 -0.14672872
-0.044129968 -0.058016207 0.10707784 0.13527226 0.15440936 -0.078185365 -0.13501602 -0.05546099
0.0056042895 -0.028098373 0.008694468 -0.09750119 -0.14197226 0.024164855 -0.077216215 -0.006732695
00000000: dae2 783d a2a8 113e 9a80 d73d df3b 70bd
00000010: f210 b83d 4640 343d 1737 113d 1561 41bd
00000020: c8f3 c53c fce0 a7bc 4f41 8cbe e45b 99bd
00000030: 6618 3e3e e68b 2f3d 615c 453d 7157 bbbc
00000040: 7d29 e83d 0987 843d 7c56 a7bd 0e05 0c3d
00000050: 58e8 41bd fc44 8dbd 00c0 e037 f43c 3d3d
00000060: 11d1 cb3c ebcb 08be 32ae 10bd 41b6 133c
00000070: a7e0 a23d af01 da3c c849 cb3c 7c64 85bc
00000080: 51f2 5abe 4b60 0bbc af44 8a3d cd99 7d3b
00000090: e6cd a0bd 8fa0 15bd 51a6 d53c 059d abbd
000000a0: 3b37 af3d d31d 493d 2a12 88bd 8ecc bebd
000000b0: deb8 403d d043 263c cbbd 24bc bf63 203d
000000c0: a4ac f1be c4d0 403c 8a73 453d 66f1 fbbd
000000d0: 46e7 433d 16eb 1f3d 1281 773c 4ddf 1e3e
000000e0: 267c 01bd 83c1 013e 7524 d93c f340 cc3a
000000f0: 3232 7ebc 679f 63bc c022 853d 4d73 a03d
00000100: 1251 60bd b05b bb3c 50e6 863d 25a7 f8ba
00000110: 27bb 3f3a a5ab 583e 3c10 beba 146c c73d
00000120: d476 3b3d 8cd9 fcbc 7907 76bc 3d00 383e
00000130: 609a a53d efee 763d e689 63bd 6d2d 83be
00000140: 1913 023e 18d6 94bd db17 893d f0a0 453e
00000150: aac9 0d3d 3334 803d 6a1e 88bd a31b 91bc
00000160: cca3 bd3d 27c7 7a3d e4f9 113e f011 5ebd
00000170: ebf3 603d ae86 993e 555c d23d 9cd8 2abd
00000180: 1182 34bd d2c9 75bd 23da 55bc 9076 debb
00000190: aa0b 29bd ef3c ab3d 9cf4 053d cb12 70bd
000001a0: 78a6 99bc 42af 683d 08aa 8ebd 63f2 433d
000001b0: 839f 943d e29d 22bc fa8e 5a3d cbdb d83d
000001c0: dc61 8dbe 5c93 f1bc 3d5d d1bd 9fc2 18bd
000001d0: 9ba4 9a3c c6a0 81bd bc0e c93c 8946 823d
000001e0: 4018 e5bb b62b 90bc 6477 98bd adcc 32be
000001f0: 8371 21be 18f3 36bc 828c 1fbd 0a88 a1bd
00000200: 4d33 36bc b7f3 c33a 7cea 063d d6ff 68bd
00000210: eef0 47be cdf3 9dbd 4ee1 58bd c8c6 0a3c
00000220: 3713 063d d480 09bc e462 46bd ee79 85bd
00000230: 1811 4d3e d0f1 793c 3868 333c acb8 23be
00000240: f5ea dfbd b987 10bd 10ae 783c 515a 5b3d
00000250: 6d80 323e 0835 b93d ba41 023d 2223 81bd
00000260: 193b 86bc 098d f5bd baed 97bc 0e73 8e3d
00000270: 2759 6a3d b5b2 0bbd 0baf ab3d 0835 673c
00000280: 960f ee3d 4492 47be 31f4 9f3d 0392 87bd
00000290: 8fcd 973d 17b2 0a3d 632e fdbb b025 6dbd
000002a0: ddb7 49bd 0cd6 09be 8eb0 103e 6dfb bebd
000002b0: b44b 413d 703a 77bc 1bd7 563d 5d52 22be
000002c0: fccf 893d 6ff2 0cbd bd23 07bb 3ee4 95bd
000002d0: bcd4 0ebd e975 993c 2fb1 b3bd 4437 683e
000002e0: f2f5 103c 7ac3 84bb 3458 60bd 4f67 273d
000002f0: bdc9 10bc a383 f4bd 0be4 ce3d ad9c 1a3e
00000300: b2e2 72bc fa23 dabc 6093 7dbc 8280 413d
00000310: 3906 163e a6c9 40bc 9b15 b13b 9c56 0c3e
00000320: d053 e2bc b8a2 9cbc 4277 8cbd 89f7 063e
00000330: 91ab 06bd b976 823e 3cce 02bd 5583 9c3d
00000340: 5d77 f93d a075 603d bad3 1b3d e8d3 0b3e
00000350: 72f2 edbc 5afb cb3d b722 e53d daa5 c7bc
00000360: add4 763d fa19 7c3c a457 ab3d dfca 83bd
00000370: 2efd 3cbe cc0f 493e e349 bd3c 20fd da3c
00000380: 6532 b13d 8012 c43c fdf4 893d d983 e73c
00000390: b114 c73c 3608 803c 5495 b13d 7362 12bd
000003a0: b454 f0bd 4803 183d c4b5 3c3e 7b08 6cbd
000003b0: aa57 3a3d 0e6b 503e fc67 71bb 0e40 16be
000003c0: a0c1 34bd 67a2 6dbd a04b db3d d084 0a3e
000003d0: 7d1d 1e3e a61f a0bd a441 0abe 102b 63bd
000003e0: 30a4 b73b 8f2e e6bc 3e73 0e3c b4ae c7bd
000003f0: 2d61 11be 60f5 c53c 8923 9ebd f09d dcbb

fc2.bias f4 [64]
-0.06072267 -0.02992799 0.13656302 0.24035737 -0.08775132 -0.039820675 0.021815328 -0.100985855
-0.07382077 -0.024741052 0.1807459 0.061692696 -0.032664657 0.018240815 -0.0070939925 0.090960324
0.008517012 0.022237984 0.17285646 -0.011064074 0.020376608 -0.09994595 -0.0029224965 0.012933549
-0.102004245 -0.016987856 -0.05132168 -0.11404551 -0.030655442 -0.07135771 -0.14169312 -0.023028348
0.082379505 0.012386959 0.003926493 0.060898025 0.019007888 0.0867363 -0.06744031 0.1307336
-0.08354262 -0.007768687 -0.006631008 0.037111964 0.00420351 -0.10036659 0.00023365353 -0.17452101
-0.062255114 -0.09657917 -0.054772656 0.023189042 0.017095793 0.21713418 0.058817297 -0.13882883
0.077514835 0.061989293 -0.034382526 0.02107876 -0.008451491 0.11809997 0.06545295 0.030338781
00000000: 56b8 78bd 8b2b f5bc 2dd7 0b3e 3e20 763e
00000010: f7b6 b3bd 011b 23bd 0fb6 b23c acd1 cebd
00000020: 582f 97bd bfad cabc 7415 393e 7bb1 7c3d
00000030: 60cb 05bd c36d 953c b974 e8bb 6849 ba3d
00000040: f08a 0b3c 6f2c b63c 4901 313e 1746 35bc
00000050: d8ec a63c 76b0 ccbd 5b87 3fbb 3ce7 533c
00000060: 9ae7 d0bd 1e2a 8bbc af36 52bd b190 e9bd
00000070: 1f21 fbbc fe23 92bd 0018 11be f2a5 bcbc
00000080: 96b6 a83d acf2 4a3c d0a9 803b 3570 793d
00000090: 6eb6 9b3c cda2 b13d 251e 8abd 07df 053e
000000a0: 6518 abbd 7890 febb ed48 d9bb b702 183d
000000b0: 99bd 893b 008d cdbd e400 7539 a3b5 32be
000000c0: 38ff 7ebd 4dcb c5bd 4b59 60bd f2f6 bd3c
000000d0: 7a0c 8c3c 6c58 5e3e 68ea 703d 2529 0ebe
000000e0: 19c0 9e3d 7ce8 7d3d b1d4 0cbd 5dad ac3c
000000f0: 1f78 0abc 66de f13d 320c 863d 0989 f83c

fc3.weight f4 [10, 64]
-0.12046026 0.01791752 -0.3002469 0.07330207 -0.04521898 -0.07877071 -0.19328462 0.20387995
0.13628276 0.036141463 -0.03372736 0.122778304 0.19919223 0.031184247 -0.31268984 -0.16478287
0.12297052 0.0054154424 0.14362068 0.32811877 0.029420728 -0.29884478 0.0071858587 -0.23615567
0.0021007743 0.006410422 -0.09317494 -0.14561778 -0.24977134 0.12979227 -0.19737685 -0.26371923
-0.15363385 -0.018501699 -0.021239506 -0.23855187 -0.22191776 -0.23020914 0.011261555 0.11529809
-0.010418696 -0.13222691 -0.05518879 -0.30600467 0.055418916 -0.5119259 -0.11941901 -0.14907986
-0.048094984 -0.035134323 -0.08360256 0.10246179 -0.35862184 -0.19029492 -0.056901254 -0.06641913
-0.2433673 0.14464754 -0.08970899 -0.10221152 0.14357133 0.07800131 -0.27603558 -0.022539472
-0.11417642 -0.23033623 -0.40065295 -0.01601487 0.024140295 -0.079551786 -0.23126297 -0.06683026
0.06633435 -0.2823468 -0.044802252 0.21546239 -0.08076361 -0.06541201 0.1903033 -0.15785421
-0.03798626 0.07535115 -0.20019254 -0.16985054 -0.19177996 0.13746026 0.13796952 0.0814759
-0.14261939 0.11697756 -0.08980555 0.054245174 0.09410461 0.041135985 0.10565913 -0.25901496
-0.078658685 0.18291822 0.15123834 0.15958355 0.11776476 -0.065218836 0.08710889 -0.24943857
-0.059334837 0.15959959 -0.12272446 -0.013689959 -0.007430498 0.076135404 0.1919509 0.06493344
-0.34914786 -0.28562298 -0.018511698 0.39394692 0.09414987 -0.2143563 -0.25123072 0.08985498
0.0007429589 -0.113102734 0.13967001 0.06620266 -0.14697511 0.07270426 -0.07641916 0.0042911684
-0.079696216 0.069660805 0.017582187 -0.07795318 -0.09256548 -0.05668202 0.16050273 -0.17695695
-0.19209585 -0.08464703 0.053217515 0.0022925865 -0.14651826 0.1555604 -0.10432778 -0.019329147
0.15406853 -0.07237179 -0.052602835 -0.06305155 -0.12026461 0.17834662 -0.14243846 -0.30804056
-0.14223813 -0.013485983 -0.16425608 -0.043405283 -0.19945952 0.026983632 0.13392603 -0.20704685
0.14861798 0.14877112 -0.25340354 -0.22744597 0.21976542 -0.2483329 0.13572003 0.0024293119
-0.11151675 0.0961359 -0.0066167624 -0.27150753 0.022010772 -0.20565043 -0.028100528 0.15224984
0.104118876 -0.12887035 0.031687275 0.030711502 -0.40292472 -0.08847678 -0.36198828 0.07360167
0.13401595 0.03420535 0.048656214 -0.16473272 0.008107967 -0.1487545 0.006709476 0.16947165
0.10352492 -0.07003424 -0.058601134 0.026266357 0.10926922 -0.110054545 0.22643802 -0.08978974
0.03781432 0.11973261 -0.24281941 -0.29676825 -0.15654327 -0.09374679 -0.24666989 -0.12256735
0.09974653 -0.17996536 0.086574756 -0.3426483 0.0959211 0.039462857 0.11622166 -0.05625108
-0.016196286 0.0062043164 0.111754544 -0.037388936 0.05384125 -0.071097136 0.14243637 0.26441994
0.080488555 -0.012600523 -0.027049173 0.14076382 -0.19817212 -0.057059556 0.08728529 -0.234464
0.03812078 0.07340698 0.030681392 0.060364768 0.053489283 0.12630601 -0.22000158 -0.18317765
-0.031271167 -0.05740857 0.12579457 -0.009650518 -0.26250032 0.058691647 0.045204327 0.10214964
0.14922906 0.107056186 -0.28927025 -0.014721305 -0.11078353 -0.19555828 -0.0379776 0.12307982
00000000: deb3 f6bd c3c7 923c f6b9 99be 651f 963d
00000010: 8a37 39bd 8a52 a1bd 67ec 45be e8c5 503e
00000020: b58d 0b3e 1209 143d b325 0abd 3173 fb3d
00000030: 0cf9 4b3e 1b76 ff3c e218 a0be d7bc 28be
00000040: f8d7 fb3d 0674 b13b 4d11 133e 2fff a73e
00000050: bd03 f13c 2f02 99be 5a77 eb3b cbd2 71be
00000060: 25ad 093b 840e d23b 81d2 bebd d41c 15be
00000070: 0fc4 7fbe 44e8 043e 281d 4abe 3506 87be
00000080: 3152 1dbe e090 97bc 79fe adbc f146 74be
00000090: 693e 63be f2bb 6bbe 6382 383c 6821 ec3d
000000a0: 2eb3 2abc 7e66 07be a40d 62bd a5ac 9cbe
000000b0: f2fe 623d 930d 03bf f491 f4bd 64a8 18be
000000c0: 3fff 44bd 02e9 0fbd d237 abbd 7dd7 d13d
000000d0: 489d b7be acdc 42be 4a11 69bd c106 88bd
000000e0: 4735 79be 7c1e 143e 59b9 b7bd 4654 d1bd
000000f0: 5d04 133e 27bf 9f3d 8954 8dbe b3a4 b8bc
00000100: 54d5 e9bd 43dd 6bbe 6222 cdbe 9e31 83bc
00000110: dec1 c53c 0cec a2bd 33d0 6cbe 4ede 88bd
00000120: 4eda 873d c38f 90be 9182 37bd 2ca2 5c3e
00000130: 6467 a5bd bbf6 85bd dede 423e 89a4 21be
00000140: 7b97 1bbd b451 9a3d 46ff 4cbe 4ded 2dbe
00000150: f761 44be 62c2 0c3e e247 0d3e d6dc a63d
00000160: d10a 12be ee91 ef3d f9eb b7bd 3030 5e3d
00000170: ebb9 c03d 357e 283d d063 d83d 9c9d 84be
00000180: ce17 a1bd ea4e 3b3e 39de 1a3e df69 233e
00000190: a72e f13d 7491 85bd 2566 b23d d36c 7fbe
000001a0: 1609 73bd 136e 233e f656 fbbd da4b 60bc
000001b0: 897b f3bb e1ec 9b3d c78e 443e d3fb 843d
000001c0: 82c3 b2be 2d3d 92be d8a5 97bc 69b3 c93e
000001d0: a6d1 c03d 3880 5bbe 50a1 80be e305 b83d
000001e0: 21c3 423a 68a2 e7bd a805 0f3e 4395 873d
000001f0: a580 16be f9e5 943d a681 9cbd ee9c 8c3b
00000200: c537 a3bd 53aa 8e3d 8508 903c eba5 9fbd
00000210: f892 bdbd 682b 68bd d45a 243e 3434 35be
00000220: c6b4 44be 6c5b adbd 9cfa 593d 383f 163b
00000230: e208 16be 3a4b 1f3e cea9 d5bd 2958 9ebc
00000240: 24c4 1d3e a937 94bd 1276 57bd 2c21 81bd
00000250: 4b4d f6bd 7fa0 363e 63db 11be 7eb7 9dbe
00000260: dfa6 11be 50f4 5cbc bf32 28be bdc9 31bd
00000270: 1e3f 4cbe c70c dd3c e823 093e 1704 54be
00000280: 502f 183e 7557 183e 1cbe 81be 99e7 68be
00000290: 300a 613e fb4a 7ebe 31fa 0a3e 1735 1f3b
000002a0: e562 e4bd e6e2 c43d 6dd1 d8bb 0903 8bbe
000002b0: ef4f b43c 0796 52be 1433 e6bc 62e7 1b3e
000002c0: 473c d53d 97f6 03be 84ca 013d b096 fb3c
000002d0: 264c cebe 5033 b5bd 8756 b9be 79bc 963d
000002e0: 7a3b 093e e91a 0c3d bd4b 473d b2af 28be
000002f0: 47d7 043c 1a53 18be 2adb db3b fa89 2d3e
00000300: e004 d43d 1d6e 8fbd be07 70bd 8b2c d73c
00000310: 8ac8 df3d 4764 e1bd 5edf 673e afe3 b7bd
00000320: 30e3 1a3d 5f36 f53d a7a5 78be 02f2 97be
00000330: e14c 20be 51fe bfbd 0897 7cbe 9704 fbbd
00000340: e947 cc3d d748 38be 1b4e b13d 996f afbe
00000350: 4872 c43d cea3 213d 9f05 ee3d 8867 66bd
00000360: 13ae 84bc 944d cb3b 91df e43d 2425 19bd
00000370: a488 5c3d 609b 91bd d7da 113e 0d62 873e
00000380: 2fd7 a43d 6d72 4ebc 3a96 ddbc 6424 103e
00000390: a2ed 4abe 48b7 69bd a1c2 b23d 5517 70be
000003a0: 8924 1c3d 6656 963d 8b57 fb3c 0c41 773d
000003b0: 9417 5b3d 5d56 013e 1848 61be ec92 3bbe
000003c0: 3216 00bd 4025 6bbd 4bd0 003e 351d 1ebc
000003d0: 7166 86be a766 703d 2c28 393d d533 d13d
000003e0: 81cf 183e 4640 db3d 3b1b 94be a131 71bc
000003f0: 7ae2 e2bd 6e40 48be 668e 1bbd 4611 fc3d

fc3.bias f4 [10]
-0.047389504 0.0045190277 -0.11225077 0.075260736 0.024555204 -0.018249076 -0.07344995 -0.046889797
0.15266773 0.17418145
00000000: 7f1b 42bd 5a14 943b bbe3 e5bd 4d22 9a3d
00000010: ff27 c93c 167f 95bc ed6c 96bd 840f 40bd
00000020: ee54 1c3e 9f5c 323e
